trained_model_real_N128_K64_ts.pt (torch, 16776 bytes, 5 tensors)

weight f4 [32, 7]
0.09900587 0.1690384 0.2642389 -0.13352813 0.26441073 -0.02325534 -0.17069419 -0.25607136
0.08030181 -0.0676966 0.14331844 -0.35055226 0.27083135 -0.14423701 0.1835241 -0.30643466
-0.30127513 0.27899775 -0.31070754 -0.062301856 -0.08498254 0.19310589 -0.13099408 0.32998547
0.08427132 0.019243296 -0.23302528 -0.34062988 -0.020445995 0.31450543 -0.24971566 -0.30195892
0.05125625 0.023968231 0.30453 0.08270902 -0.36626017 -0.10282772 0.037727788 0.34179872
0.0926464 -0.123073846 -0.07079779 -0.29316688 -0.35900486 0.06589311 -0.34293374 -0.18646157
0.10051329 -0.3406422 -0.018547527 -0.12621734 0.3389193 -0.13092086 0.1892323 -0.071214914
-0.23507619 0.26484987 0.2573534 -0.103146 -0.10551415 -0.23092256 0.02628519 0.13351507
0.31636468 0.16057995 -0.0032674344 -0.10899136 0.30435702 -0.19255812 -0.03371802 -0.20740108
0.06260409 0.06606532 -0.35804302 -0.31889328 0.1325713 0.33896768 0.102133036 -0.19086453
0.24104144 -0.21084955 -0.23342845 -0.2130782 -0.18124475 -0.0048946184 0.16007014 -0.298751
-0.28513017 -0.24471827 0.12181383 0.29690415 -0.10498225 -0.0041168015 0.07962104 -0.0038838126
0.10793343 0.06813199 0.36114436 -0.23556726 -0.11116959 0.052658603 0.2587121 -0.37546813
-0.29266402 -0.03768558 -0.07843478 -0.2620841 0.15700127 -0.14659385 0.31542867 0.18797381
0.3472186 0.29939517 0.10663683 -0.10187066 0.15850252 -0.28893375 -0.14005758 -0.09519158
-0.04380754 -0.3090327 0.069458105 -0.33050764 0.23320286 -0.23452419 0.23479095 -0.13674298
0.05397656 0.16892481 0.08164374 -0.11289505 -0.06470857 0.036321785 -0.12389722 0.017211907
-0.1258958 0.33794215 0.047464535 -0.24990103 -0.11120416 0.13155401 -0.3686148 -0.24276757
-0.1066927 -0.19612825 -0.37270877 0.17283393 -0.15566538 -0.001948034 0.18381985 0.2558783
-0.0015625724 -0.023435883 0.27695575 -0.23464215 0.12621734 -0.07214498 0.06435154 -0.17950533
-0.27679622 0.16943735 -0.032206025 0.1444583 0.073182866 0.019136285 -0.32010636 -0.15122642
0.19926637 -0.37268034 0.17247353 -0.04246498 -0.057832077 -0.13803251 0.24351151 0.28721383
0.24883214 0.36990798 0.3281761 0.018954977 0.20976917 -0.029466655 -0.018829852 0.25236312
0.026398689 0.33410493 0.19061667 0.32841912 -0.27212843 -0.023059104 -0.14755149 0.27697667
0.18171118 -0.03844266 -0.3540065 -0.24346338 -0.0002641234 -0.27998623 0.17027633 0.3495294
0.078772485 -0.05967319 -0.3156982 0.0065985634 -0.016295495 -0.010977161 0.3550052 0.1853556
-0.16905399 -0.22616857 -0.35747233 0.1676976 -0.36387837 0.13737066 0.3015569 -0.263721
0.013628444 0.32467023 0.3495335 -0.18008044 -0.09092099 -0.36581174 -0.28493297 0.013981599
00000000: 97c3 ca3d 6718 2d3e 524a 873e 99bb 08be
00000010: d860 873e fc81 bebc 75ca 2ebe c91b 83be
00000020: 4675 a43d 84a4 8abd 12c2 123e 967b b3be
00000030: 68aa 8a3e deb2 13be beed 3b3e 01e5 9cbe
00000040: bc40 9abe cbd8 8e3e 0f15 9fbe 3b30 7fbd
00000050: 530b aebd 8dbd 453e 5023 06be dbf3 a83e
00000060: 7196 ac3d 1ea4 9d3c 2e9e 6ebe 0a67 aebe
00000070: 5c7e a7bc db06 a13e 76b5 7fbe 5c9a 9abe
00000080: 13f2 513d 0659 c43c 5beb 9b3e 5963 a93d
00000090: 7486 bbbe 5797 d2bd 7488 1a3d 3e00 af3e
000000a0: 65bd bd3d 240e fcbd 6ffe 90bd f819 96be
000000b0: 7ccf b7be f8f2 863d 0395 afbe c8ef 3ebe
000000c0: e9d9 cd3d a868 aebe fcf0 97bc 1e3f 01be
000000d0: d586 ad3e 1e10 06be 1dc6 413e 20d9 91bd
000000e0: d0b7 70be 679a 873e d3c3 833e 363e d3bd
000000f0: cd17 d8bd f776 6cbe 0a54 d73c 2db8 083e
00000100: 8dfa a13e 126f 243e 7422 56bb dd36 dfbd
00000110: afd4 9b3e f52d 45be e81b 0abd f360 54be
00000120: 9336 803d 414d 873d 6a51 b7be fb45 a3be
00000130: c5c0 073e 2c8d ad3e 202b d13d fe71 43be
00000140: 91d3 763e f2e8 57be de07 6fbe 2c31 5abe
00000150: 3998 39be 0963 a0bb 6de9 233e e4f5 98be
00000160: 95fc 91be 6d97 7abe 8879 f93d d203 983e
00000170: ef00 d7bd 3ce6 86bb 5b10 a33d 9087 7ebb
00000180: 340c dd3d c988 8b3d eae7 b83e 8b38 71be
00000190: e2ac e3bd 8cb0 573d ea75 843e 5c3d c0be
000001a0: 0fd8 95be 325c 1abd 6aa2 a0bd e32f 86be
000001b0: f1c4 203e b31c 16be de7f a13e 357c 403e
000001c0: a3c6 b13e 534a 993e 6964 da3d 91a1 d0bd
000001d0: 7c4e 223e 20ef 93be 416b 0fbe cef3 c2bd
000001e0: 896f 33bd 8939 9ebe 0d40 8e3d 4c38 a9be
000001f0: bbcc 6e3e 1c27 70be 0a6d 703e 5a06 0cbe
00000200: 8616 5d3d a0fa 2c3e d534 a73d 8535 e7bd
00000210: ed85 84bd 27c6 143d d3bd fdbd fcff 8c3c
00000220: d4ea 00be c106 ad3e 2c6a 423d 0ee6 7fbe
00000230: 02bf e3bd 18b6 063e 14bb bcbe 1098 78be
00000240: b481 dabd d8d5 48be afd3 bebe 61fb 303e
00000250: bf66 1fbe 2d55 ffba 453b 3c3e 7b02 833e
00000260: 3bcf ccba 9cfc bfbc 25cd 8d3e 0846 70be
00000270: 1e3f 013e bfc0 93bd bdca 833d 3fd0 37be
00000280: 3cb8 8dbe fc80 2d3e 77ea 03bd e0ec 133e
00000290: e6e0 953d b3c3 9c3c fbe4 a3be 19db 1abe
000002a0: 7c0c 4c3e f5cf bebe e79c 303e c2ef 2dbd
000002b0: 54e1 6cbd 6558 0dbe 155b 793e b10d 933e
000002c0: dacd 7e3e 9464 bd3e b306 a83e 7847 9b3c
000002d0: bbcd 563e 0e64 f1bc 1041 9abc bd35 813e
000002e0: 1042 d83c cd0f ab3e 0431 433e 8d26 a83e
000002f0: 6b54 8bbe 72e6 bcbc bd17 17be e3cf 8d3e
00000300: 7f12 3a3e 0d76 1dbd 5740 b5be 774e 79be
00000310: 0b7a 8ab9 5b5a 8fbe eb5c 2e3e 84f5 b23e
00000320: 7853 a13d e06b 74bd 32a3 a1be c338 d83b
00000330: 217e 85bc 8dd9 33bc 3ec3 b53e dccd 3d3e
00000340: 7d1c 2dbe bc98 67be 9d06 b7be ebb8 2b3e
00000350: 444e babe e5aa 0c3e aa65 9a3e 7006 87be
00000360: d649 5f3c 2d3b a63e 0ef6 b23e 0267 38be
00000370: c934 babd ad4b bbbe bce2 91be 1413 653c

bias f4 [32]
0.22840603 0.12799191 0.022201957 0.27674595 0.30049744 -0.25461447 -0.18187234 0.0949345
-0.11374632 0.091004886 0.29033685 0.27201065 -0.36778343 -0.0025890595 0.28582624 0.35999316
0.198525 -0.15286133 0.28677228 -0.13737464 0.14722553 0.3611886 -0.00013030814 0.020949725
0.24947637 -0.3794245 -0.14432964 -0.21654938 -0.13823247 0.17269404 0.23312551 -0.012548229
00000000: 45e3 693e 5010 033e e1e0 b53c a5b1 8d3e
00000010: cdda 993e d45c 82be be3c 3abe 056d c23d
00000020: d5f3 e8bd c560 ba3d 08a7 943e fb44 8b3e
00000030: 1c4e bcbe 36ad 29bb d157 923e 0651 b83e
00000040: 234a 4b3e ae87 1cbe d1d3 923e f0ab 0cbe
00000050: 4ac2 163e b6ed b83e 53a3 08b9 c29e ab3c
00000060: bc76 7f3e ee43 c2be 26cb 13be 1fbf 5dbe
00000070: d08c 0dbe b5d6 303e 74b8 6e3e 1697 4dbc

weight f4 [32, 32]
-0.13706414 -0.056269877 -0.06594496 -0.0025511486 0.019923469 -0.14747435 -0.090436324 -0.12036881
-0.15402812 0.057252005 0.16438061 -0.15296242 -0.068721764 -0.06120308 -0.036765054 -0.069025956
-0.16844283 -0.0023600971 -0.114882424 0.067469895 0.13613863 0.05393216 0.1280038 -0.048240017
-0.07190575 0.11348928 0.0039873235 0.028120462 -0.14248085 0.15988156 -0.07794252 -0.071250044
0.05876731 0.1543848 0.06421562 0.14623499 -0.09988817 -0.031814676 0.040967096 0.13586947
0.071247265 0.05039412 -0.12013351 0.15323879 0.02974052 -0.003510266 -0.10131442 0.026757503
0.1682405 0.060516197 -0.08869993 -0.17571996 0.03743098 -0.014741488 0.041948713 0.13427942
-0.06320509 0.08335326 0.052350163 -0.12841193 -0.086047344 -0.094920926 0.08291144 0.042532157
0.016533092 0.10765626 -0.065964855 -0.14432229 0.07372938 -0.17201 -0.030978754 -0.07372135
-0.09202636 -0.053712998 0.102642305 0.035087463 -0.16532063 -0.0021914886 -0.12589748 -0.16841699
0.02141631 0.12829204 0.036672268 -0.08198481 0.04967539 -0.14155807 0.09490243 -0.010335166
0.034012336 0.02035149 -0.020738315 -0.13518226 -0.038286217 0.1568684 0.0723556 0.024781693
0.0025186117 -0.16837333 0.13135663 0.049752694 0.14019561 -0.020578984 0.080350205 -0.05201804
0.0683445 0.070302285 -0.14997742 -0.14333387 0.08515071 0.0783048 0.13993487 0.003613713
-0.039405502 0.085418634 0.10667744 0.039509818 0.10008631 0.12134309 -0.12452012 -0.15659812
-0.082551636 -0.06115369 0.06153362 0.05565217 -0.08710822 0.03211151 -0.13636598 0.08349643
-0.08504763 0.17344739 -0.12366847 -0.032527376 -0.16789149 -0.09549687 -0.017749952 -0.023448545
0.15854774 0.04987325 0.045149088 -0.05526225 0.17972128 -0.11673791 0.15777794 -0.076612405
0.124050274 -0.13068095 0.15786116 0.101721056 0.15029429 0.10929633 0.039338544 0.12463038
0.079240866 0.08585617 0.14422578 0.14787705 -0.13983603 -0.044747505 -0.16281024 -0.16881867
0.18220955 0.046471663 0.016610887 0.10096157 -0.13623177 0.15945812 0.032355167 -0.17656231
-0.046457313 -0.044315297 0.03762409 0.042137127 -0.077577576 0.1647565 0.067237444 0.17075907
-0.05077324 -0.019745335 -0.09617763 -0.09527162 -0.03628639 0.090437055 0.15823132 -0.070684314
0.16818202 -0.0056260605 0.12257987 0.048944313 0.17538254 -0.0296188 -0.14584221 0.015094626
0.15435137 -0.15877837 -0.087265134 -0.0055158213 -0.019795068 -0.033473913 -0.034694865 -0.059236087
-0.061643347 0.11599556 -0.14855959 -0.06578522 -0.112347394 -0.079278834 0.15222798 0.120275915
-0.06887014 -0.056110244 -0.06961387 -0.0989644 -0.1645923 -0.029333953 -0.089784145 0.10473005
-0.09429586 0.15739974 0.045070555 -0.022638272 -0.019907199 0.15421523 -0.039353374 -0.0592995
-0.1370608 0.030770255 0.09540706 -0.034646183 0.0070041106 -0.021606918 0.14897609 -0.04154904
0.11761626 -0.08121295 -0.015085452 0.14937441 -0.13070866 -0.112802476 0.03229715 -0.15230134
-0.047014073 0.011264399 0.09822047 -0.044665754 -0.15027526 -0.028800795 -0.17473155 0.049121644
-0.080309175 0.100020036 -0.041564863 -0.14772744 -0.013930524 -0.16567363 -0.027496245 -0.043673553
00000000: 8b5a 0cbe 3e7b 66bd 270e 87bd 2c31 27bb
00000010: 8b36 a33c 8403 17be ae36 b9bd ec83 f6bd
00000020: 8cb9 1dbe 1481 6a3d 6453 283e 2ea2 1cbe
00000030: ffbd 8cbd 15b0 7abd f496 16bd 7b5d 8dbd
00000040: 477c 2cbe dcab 1abb 7a47 ebbd a82d 8a3d
00000050: ed67 0b3e f8e7 5c3d 6e13 033e 5397 45bd
00000060: 5243 93bd 116d e83d 18a8 823b e25c e63c
00000070: 80e6 11be feb7 233e 54a0 9fbd 8beb 91bd
00000080: feb5 703d 0d17 1e3e 7b83 833d a0be 153e
00000090: 2b92 ccbd 1b50 02bd 1dcd 273d 5e21 0b3e
000000a0: 16ea 913d 116a 4e3d 8f08 f6bd a1ea 1c3e
000000b0: 64a2 f33c 7e0c 66bb ef7d cfbd 8d32 db3c
000000c0: 3d47 2c3e d5df 773d 4fa8 b5bd efef 33be
000000d0: 3a51 193d 4886 71bc 6ad2 2b3d 8b80 093e
000000e0: ac71 81bd 1db5 aa3d 206d 563d 6b7e 03be
000000f0: 9739 b0bd e765 c2bd 79cd a93d 3336 2e3d
00000100: 6870 873c e37a dc3d 9518 87bd 39c9 13be
00000110: 6eff 963d 6423 30be 28c7 fdbc 38fb 96bd
00000120: 5178 bcbd 2902 5cbd 2136 d23d dfb7 0f3d
00000130: d049 29be 149f 0fbb 45eb 00be 8175 2cbe
00000140: 4271 af3c fd5e 033e a935 163d a7e7 a7bd
00000150: 6c78 4b3d 99f4 10be 355c c23d d454 29bc
00000160: 8550 0b3d 2bb8 a63c 66e3 a9bc 386d 0abe
00000170: 02d2 1cbd 1ca2 203e 2c2f 943d fa02 cb3c
00000180: 4b0f 253b 0f6a 2cbe 5a82 063e 7bc9 4b3d
00000190: 708f 0f3e 4295 a8bc a68e a43d de10 55bd
000001a0: 34f8 8b3d a5fa 8f3d ae93 19be 1dc6 12be
000001b0: 7f63 ae3d 445e a03d 164b 0f3e 0bd4 6c3b
000001c0: aa67 21bd f7ef ae3d b479 da3d 0cd5 213d
000001d0: 0dfa cc3d ba82 f83d 6804 ffbd 425b 20be
000001e0: d510 a9bd 4b7c 7abd ad0a 7c3d 88f3 633d
000001f0: cb65 b2bd 5c87 033d 86a3 0bbe 2d00 ab3d
00000200: 742d aebd 319c 313e e545 fdbd 6d3b 05bd
00000210: bfeb 2bbe dd93 c3bd 5968 91bc 2a17 c0bc
00000220: 575a 223e e547 4c3d 40ee 383d ab5a 62bd
00000230: db08 383e 4914 efbd 8a90 213e f7e6 9cbd
00000240: 120e fe3d 3ad1 05be 5ba6 213e 2153 d03d
00000250: bfe6 193e c1d6 df3d 7421 213d 363e ff3d
00000260: 0949 a23d 5cd5 af3d ecaf 133e 156d 173e
00000270: 2d31 0fbe 2949 37bd bab7 26be cdde 2cbe
00000280: 2495 3a3e 1259 3e3d 8e13 883c f1c4 ce3d
00000290: 5780 0bbe fd48 233e da86 043d c0cc 34be
000002a0: 064a 3ebd f583 35bd b81b 1a3d fb97 2c3d
000002b0: fee0 9ebd eeb5 283e c9b3 893d 77db 2e3e
000002c0: 9af7 4fbd f8c0 a1bc c7f8 c4bd c41d c3bd
000002d0: 0aa1 14bd 1037 b93d 6407 223e f0c2 90bd
000002e0: e837 2c3e d15a b8bb 280b fb3d d579 483d
000002f0: 7b97 333e 20a3 f2bc a957 15be 734f 773c
00000300: 490e 1e3e cc96 22be 10b8 b2bd 10be b4bb
00000310: 4429 a2bc f11b 09bd 341c 0ebd 8aa1 72bd
00000320: bc7d 7cbd 158f ed3d 0120 18be 67ba 86bd
00000330: 6416 e6bd f15c a2bd a7e1 1b3e 3853 f63d
00000340: ca0b 8dbd dbd3 65bd b791 8ebd d9ad cabd
00000350: e28a 28be c24d f0bc c0e0 b7bd b57c d63d
00000360: 301e c1bd 662d 213e e79b 383d e673 b9bc
00000370: 6c14 a3bc 99ea 1d3e 0131 21bd 08e4 72bd
00000380: ab59 0cbe e711 fc3c c764 c33d 28e9 0dbd
00000390: bd82 e53b fe00 b1bc 308d 183e 532f 2abd
000003a0: cbe0 f03d fa52 a6bd f928 77bc 9bf5 183e
000003b0: 7ed8 05be fc04 e7bd 044a 043d e2f4 1bbe
000003c0: d491 40bd 508e 383c d027 c93d 70f3 36bd
000003d0: c2e1 19be a5ef ebbc d4ec 32be c733 493d
000003e0: 2379 a4bd 4ed7 cc3d eb3f 2abd dd45 17be
000003f0: da3c 64bc 59a6 29be ce3f e1bc 0ae3 32bd

bias f4 [32]
0.13250095 0.07011621 -0.0058973976 0.12273674 0.05781931 -0.07483737 -0.050806254 -0.09219256
-0.11981894 -0.09586008 0.010047202 -0.014338798 0.14292002 0.010149604 -0.12236258 -0.124440126
-0.06630385 0.1358093 -0.006278851 -0.09703831 -0.16074687 0.03344226 -0.040099606 -0.045072682
0.047611285 0.16581692 -0.16634256 -0.0051469314 0.061443996 0.12474555 0.026460493 0.082456455
00000000: 54ae 073e 1699 8f3d f53e c1bb 665d fb3d
00000010: f1d3 6c3d 5644 99bd 381a 50bd 74cf bcbd
00000020: a263 f5bd 4a52 c4bd 059d 243c 47ed 6abc
00000030: a059 123e 864a 263c 3b99 fabd 77da febd
00000040: 50ca 87bd 9811 0b3e d2be cdbb 05bc c6bd
00000050: d49a 24be c0fa 083d 7c3f 24bd 229e 38bd
00000060: 0d04 433d e9cb 293e b455 2abe 97a7 a8bb
00000070: b3ac 7b3d 987a ff3d adc3 d83c eede a83d

weight f4 [1, 32]
0.11200601 -0.103050336 0.08037796 0.0053950413 0.14838834 0.10616624 -0.13412903 -0.1135029
0.07394087 0.16143695 -0.10238641 0.016652616 -0.13779849 0.14130569 0.13308094 -0.13386802
-0.108454406 0.050224904 -0.081739314 -0.014064548 0.062177118 -0.15684688 -0.13756394 -0.10694479
-0.027047852 -0.07733304 0.044112407 0.07513305 -0.08351042 -0.00562829 0.09935237 -0.07711363
00000000: 6863 e53d 0e0c d3bd 339d a43d e3c8 b03b
00000010: 1df3 173e b06d d93d 1f59 09be 3574 e8bd
00000020: 506e 973d ba4f 253e f7af d1bd 116b 883c
00000030: 0c1b 0dbe 70b2 103e 5f46 083e b314 09be
00000040: 581d debd a1b8 4d3d f166 a7bd fd6e 66bc
00000050: 6fad 7e3d 789c 20be 90dd 0cbe df05 dbbd
00000060: 7593 ddbc c960 9ebd 36af 343d 5bdf 993d
00000070: 8307 abbd 856d b8bb 4179 cb3d c0ed 9dbd
