trained_model_real_N128_K64_v3.pt (torch, 8873 bytes, 5 tensors)

network.0.weight f4 [32, 7]
000000 db d0 96 be ef 8c bb be f4 36 08 be 69 b9 00 be
       -0.2945622 -0.3663096 -0.13302213 -0.12570728
000010 ed f5 ee 3b 0f 7d 3d 3e c4 03 a4 be 4a 97 06 3d
       0.0072925 0.18504737 -0.32034123 0.032859124
000020 58 56 84 3e 8e e7 7b 3e 57 60 82 bd 87 96 80 3e
       0.25847125 0.2460005 -0.063660316 0.25114843
000030 ef 15 3e 3d a8 0a ab be 98 d4 e5 3d 20 5b 6f 3e
       0.046407636 -0.33406568 0.1122219 0.23374605
000040 6e ae 27 be 50 05 20 be c7 43 76 3e 82 28 8e 3e
       -0.16375133 -0.15627027 0.24049293 0.2776528
000050 58 fe a5 be 38 92 06 bd e8 4f a0 be 37 98 67 be
       -0.3242061 -0.03285429 -0.31310964 -0.22616659
000060 48 6a ac 3e db 19 60 be 1b 3c 32 bd 87 ea 70 3e
       0.33674836 -0.21884863 -0.043514352 0.23526965
000070 b9 14 cc bb 26 ee 82 be 49 b2 91 3e 9a 18 b2 3e
       -0.0062280563 -0.25572318 0.28456333 0.34784395
000080 65 28 b4 be b3 25 9d 3e b1 16 c8 bc aa 1c b1 3d
       -0.3518707 0.30692825 -0.024424883 0.08648045
000090 a0 f2 91 3e ab 67 d0 bc 94 93 10 3e 42 2b 7a be
       0.2850542 -0.025440058 0.14118797 -0.24430564
0000a0 06 d1 88 bc 7d bd 17 bd 22 e3 66 bd 1a 07 af be
       -0.016701233 -0.037045944 -0.056368954 -0.34185106
0000b0 26 f9 57 3e ed ef 83 be 11 57 97 3e c2 fe 91 bd
       0.21091136 -0.25768986 0.29558614 -0.07128669
0000c0 0c a2 0c 3e 16 c6 a6 bd 43 44 7e 3e 6a 92 60 be
       0.13733691 -0.08143251 0.24830727 -0.21930853
0000d0 6a 09 cb bd ca 27 83 3d 7e 93 7e be ee 4a 3c be
       -0.09913905 0.064040735 -0.24860951 -0.18387958
0000e0 e3 ec 97 3e 52 a0 75 3e 68 9c 62 be 0a 26 87 bd
       0.29672918 0.23986939 -0.22129977 -0.06599052
0000f0 91 75 01 3e f0 04 34 be 98 69 b4 be 1f 66 1b bd
       0.12642504 -0.17580009 -0.35236812 -0.037939187
000100 40 b3 3f 3e 10 9c 3a 3e 52 f2 38 be d8 9c e6 3d
       0.18720722 0.18223596 -0.18061188 0.11260384
000110 a3 bf 38 3e 63 7e b1 be 22 9c 8b 3c e2 19 bd 3e
       0.18041854 -0.34666738 0.017042223 0.3693381
000120 0e 8e 1e 3e da 10 85 bd 6b 25 b1 be 7d a5 d5 bd
       0.15483877 -0.06497355 -0.3459886 -0.10431955
000130 d4 77 e2 bd fa 8c 0b be b8 39 0e be 05 9a 21 be
       -0.11058012 -0.13627997 -0.13889205 -0.1578141
000140 2b 8f 6f be ec a7 26 3e f5 a2 10 3e ad 82 b4 be
       -0.23394458 0.16274995 0.14124663 -0.35255948
000150 40 d5 19 3d 16 48 c5 3d e4 10 4b 3e 1f de 01 3e
       0.037556887 0.0963289 0.19830662 0.12682389
000160 c6 c6 ac bd 28 1c 1c be 79 b1 8b 3e ba 4b 6b be
       -0.084363505 -0.15245116 0.27283838 -0.22978106
000170 87 a9 a8 bb 65 58 9e 3e b9 8f 71 be 4b 28 79 3d
       -0.0051471624 0.30926815 -0.23589982 0.060829442
000180 c3 37 b9 3e 31 71 68 3e 7a e4 26 be e1 e3 7a be
       0.36175355 0.22699429 -0.16298094 -0.24500991
000190 8d 49 8d 3e 21 df 4f bb bc 77 df 3d cb 32 b5 3e
       0.27595177 -0.0031718689 0.109115094 0.35390314
0001a0 85 fb 01 3d 3f 69 91 3c 19 0c 88 be b1 73 33 3c
       0.03173401 0.01775038 -0.2657173 0.010952876
0001b0 80 8e 89 be e5 7d 81 be 32 17 94 be fd 56 b1 3e
       -0.2686653 -0.25291362 -0.28923947 0.3463668
0001c0 d8 78 e7 3d ac 63 98 bd a5 dd 7c bd e4 f8 84 3e
       0.11302346 -0.07440886 -0.061734814 0.25971138
0001d0 49 7d 5d 3e 3d 1f 13 3e 56 43 aa bd 5b bc 27 3e
       0.21629824 0.14367385 -0.083136246 0.16380446
0001e0 23 c3 6c bb d8 6f f9 bd 69 ae 7c be fa 36 07 be
       -0.0036127053 -0.121795356 -0.24675907 -0.13204566
0001f0 04 db 04 be f9 66 71 be c9 28 3c 3e 14 4c 6f 3e
       -0.12974173 -0.23574437 0.18374933 0.23368865
000200 e4 81 73 3e 12 86 a2 bd 72 d3 07 3e 71 f9 86 3e
       0.23780018 -0.07935728 0.13264254 0.26362184
000210 29 ab 4d be f7 e0 bb 3e d4 57 1b 3e d4 7a dd bd
       -0.20084824 0.36695072 0.15170223 -0.10814443
000220 48 aa 9c bd 78 b2 95 be 92 06 ba 3e a4 60 40 be
       -0.07649666 -0.29237723 0.36333138 -0.18786865
000230 6c fd f7 bc fd 7a 05 be ea a8 57 be ba 60 ff 3d
       -0.030272208 -0.13035198 -0.2106053 0.12469621
000240 09 78 03 bd 0b a0 54 be 7c 00 81 3e fe b9 bf bd
       -0.032096896 -0.20764177 0.25195682 -0.09361647
000250 94 69 93 bc 45 68 2e be 3d 89 6b 3e 7f 11 fb 3d
       -0.01799468 -0.17031963 0.23001571 0.122591965
000260 30 e8 a5 be 02 28 7c be cd d6 48 3e 61 98 bf 3e
       -0.32403708 -0.24624637 0.1961319 0.37420943
000270 d7 a4 67 be f4 b8 a6 3e 25 b5 9e be 4a 11 a0 be
       -0.22621475 0.32562983 -0.30997577 -0.3126319
000280 cd 20 88 3e 4c 68 8d 3e 90 78 76 be 4e 8f a0 3d
       0.26587525 0.27618635 -0.24069428 0.07839833
000290 b7 94 b8 bd c4 5f 2c be 7f f9 9f 3e d8 6b 83 3e
       -0.0901274 -0.16833407 0.31245038 0.25668216
0002a0 9b 9f 1c 3c c5 78 33 3e 52 f4 e5 3d a5 a8 71 be
       0.009559537 0.17526539 0.11228241 -0.23599489
0002b0 62 41 11 3e a9 4d 6d bd ee c7 40 be d6 db 01 be
       0.14185098 -0.05793539 -0.18826267 -0.12681517
0002c0 f3 6c 64 3e 11 7c 3c 3e 5d a6 5a be c3 64 b8 bd
       0.22307186 0.18406703 -0.21352525 -0.09003594
0002d0 5c d9 06 be 98 1b 9f be fb d3 84 3e 55 5f 52 be
       -0.13168854 -0.3107574 0.25942978 -0.20544179
0002e0 e9 5a a7 be f9 ef be be ee 2b 6d be 4d d1 62 3e
       -0.32686546 -0.3729246 -0.23161289 0.22150154
0002f0 2d 91 f0 bd 7a 9b 34 be aa 78 4e be 6a b3 a7 3e
       -0.1174644 -0.17637435 -0.20163217 0.3275407
000300 e8 7a 26 3e b9 82 01 be a6 5d 96 3e d0 08 4c be
       0.16257823 -0.12647523 0.29368323 -0.19925237
000310 78 7f d0 bd cb 3b 8d be ed 51 69 be aa 3b c1 be
       -0.10180563 -0.2758468 -0.22785158 -0.37740833
000320 13 67 ab bd ef b9 af 3e 5c 97 84 3d d8 1b 97 3e
       -0.08369269 0.34321544 0.06474182 0.2951343
000330 05 9b 98 3e da ef 8a be 37 c3 93 3e 2f 50 93 3d
       0.2980577 -0.27136117 0.28859875 0.07193028
000340 fc 02 a7 bd ab 0b bf be ea 2d ba 3e ab b9 b8 be
       -0.08154866 -0.3731359 0.36363155 -0.36079153
000350 dc 6f b0 be 17 ee 23 3e 6b 51 71 3e 3b 89 bc be
       -0.34460342 0.16008793 0.23566215 -0.3682345
000360 ab 7c 43 bd 72 58 b1 be 42 e6 88 3e ef df 87 3e
       -0.047726315 -0.3463779 0.26738173 0.26538035
000370 d7 69 a8 3c 5a 47 a2 3d 3e 4e 92 be a5 0d fe bd
       0.02055828 0.079237655 -0.2857532 -0.12404946

network.0.bias f4 [32]
000000 57 71 cf be 05 db 5d 3d 27 85 ec bd 40 4d 99 3d
       -0.4051616 0.05416395 -0.11548834 0.074854374
000010 d9 f0 f1 3d b4 1f 59 be 80 a7 8f be 7a 64 c4 be
       0.11813516 -0.212035 -0.2805748 -0.38357908
000020 99 d3 82 3e 77 3f 42 bd 5d 91 e7 bc a7 ac a9 3c
       0.2555206 -0.047423806 -0.028267557 0.02071221
000030 f5 33 c9 3c 5f 32 d2 3e ee 9f a3 3e 1d c9 5d 3d
       0.024560908 0.41054055 0.31957954 0.054146875
000040 55 eb 76 be 88 3f 87 be bd 6a 38 bd 3c 73 72 3e
       -0.2411321 -0.26415658 -0.04502367 0.23676771
000050 80 95 a1 3e 83 17 76 be 48 2a 28 3e 64 07 8c 3e
       0.31559372 -0.24032407 0.16422379 0.2734939
000060 8a 7b 7b bd ab cf a1 be af 71 a7 be e3 90 1d bd
       -0.061397113 -0.3160375 -0.3270392 -0.038468253
000070 ed fa 65 3e 51 27 95 be 52 3b 71 3e 87 7b 53 3c
       0.22459002 -0.2913156 0.23557785 0.012907869

network.2.weight f4 [32, 32]
000000 e9 b5 be bd 21 cd 5f 3d d7 a6 a9 3d b1 8a 0f be
       -0.0931204 0.054638986 0.08283775 -0.1401775
000010 c3 aa f7 3d 9c ee e0 3d f9 e5 2f 3d b2 00 87 bd
       0.12093117 0.10983011 0.04294393 -0.065919295
000020 6f 33 09 3e e1 0b ce 3d c5 90 f2 3d 11 2b af bd
       0.13398527 0.100608595 0.11844019 -0.08553136
000030 59 d9 fa 3d 07 0e 21 be f5 ed 04 bd ae 4d 98 bd
       0.12248487 -0.15728007 -0.032453496 -0.07436691
000040 b8 92 f5 bd 3a 40 b9 bd bf 1e 2f 3c 3c c0 22 3c
       -0.11990875 -0.09045453 0.010688483 0.009933528
000050 fa 89 bb 3d ea ed f7 bd 94 2b 1b bc 1a 0b 44 3d
       0.09157176 -0.121059254 -0.009470839 0.04786215
000060 94 b5 0e 3d 7e b6 1c 3e 5d 20 a4 3d c4 ab 49 bd
       0.034841135 0.1530399 0.08013985 -0.049236074
000070 74 76 ce bd f5 0a e6 3d 03 d0 aa bb 92 db 05 be
       -0.10081187 0.11232559 -0.005212785 -0.1307204
000080 34 69 93 bd 2d 76 b9 3d 23 19 ac bd 4d c1 88 bd
       -0.071978 0.09055743 -0.08403232 -0.06677494
000090 e0 c5 d6 bd 3f 9e 1f be cb 71 e2 3d 3b 20 eb 3c
       -0.104869604 -0.1558771 0.110568605 0.028701892
0000a0 86 5c dc bd 1f 7b 01 3c 2e f1 97 bd b4 06 fe bd
       -0.10759835 0.0079028895 -0.07419048 -0.12403622
0000b0 ec 6d 95 3d 91 15 08 3e e8 8c 42 3c c8 ad 9c bd
       0.072963566 0.13289477 0.011874415 -0.07650334
0000c0 68 b8 5e 3c f0 42 8a ba 41 fc 33 be 91 98 1d be
       0.013593771 -0.0010548513 -0.17576696 -0.1539023
0000d0 72 31 d0 3d 37 13 ba bd 37 a0 d2 bd da 87 2d bd
       0.10165681 -0.09085696 -0.10284465 -0.042365886
0000e0 97 2e 16 be fc 3e e1 bb 19 24 eb bd 5f 44 07 3d
       -0.1466621 -0.0068739634 -0.114814945 0.033024188
0000f0 9d 93 26 3e e5 78 82 3d e9 a7 1c 3e 8d 44 24 3e
       0.16267247 0.06370715 0.15298428 0.16041775
000100 e9 2f 1b bd bf 04 2b 3e ad de 30 bd 1b 21 23 3d
       -0.037887488 0.16701029 -0.04318111 0.039826494
000110 ea 3b fb bd 0d 67 f6 3b e8 6f 0f be 00 6e 39 3d
       -0.12267287 0.007519609 -0.14007533 0.04527092
000120 10 6e 87 bd f0 b8 27 bd 4b 46 e7 3d b9 ee 96 3d
       -0.0661279 -0.040947855 0.11292704 0.073697515
000130 5c 1b fe 3d c7 62 33 be ba d6 1e bd f8 1d 3c 3d
       0.12407562 -0.1751815 -0.038778998 0.045927018
000140 35 ed a3 bd 57 1e 91 bd e1 b1 0b bd 4b f4 2f 3c
       -0.08004228 -0.07085865 -0.034105185 0.010739396
000150 42 13 76 3c 14 29 07 3e 04 7c 19 be 6f 55 92 bd
       0.01501924 0.13199264 -0.14988714 -0.071452014
000160 07 41 4f 3d d2 26 11 be 61 84 2a 3e 43 49 b9 bd
       0.050599124 -0.14174965 0.16652061 -0.09047177
000170 32 15 cb bd 3a f8 1a bc fa f9 07 be 88 fa c5 3d
       -0.09916152 -0.009458596 -0.13278952 0.09666926
000180 fa 07 dd 3d 16 5d 95 bd 6c fd fe bd da 89 bc 3d
       0.10792537 -0.07293145 -0.1245068 0.092059806
000190 46 ec 89 3d f3 4c 17 be f1 a1 1e bd c2 ed 18 3e
       0.06734519 -0.14775448 -0.038728658 0.14934447
0001a0 f7 b7 15 3e b7 74 11 3d 57 43 1d be 40 1a 28 be
       0.14620958 0.0355117 -0.1535772 -0.16416264
0001b0 2c 38 35 bd 67 2a 0c be 8c c7 b7 3d d5 2f 08 3d
       -0.044243023 -0.1368805 0.089736074 0.03324874
0001c0 ef e5 e9 bd 46 74 5b 3d 6c 66 86 3d 72 39 0a be
       -0.114208095 0.053577684 0.06562504 -0.13498476
0001d0 8b 43 05 be 4f 6b c4 3c 0c bd a7 bc a2 bc fc 3d
       -0.13014047 0.02397695 -0.020475887 0.12340666
0001e0 48 79 80 3d f7 99 12 3d 5b 68 99 bd 4b 6a c1 3d
       0.062731326 0.035791364 -0.07490607 0.09444102
0001f0 c2 81 21 be 8d f1 04 3e 10 8e f8 3d 18 bb 2b 3e
       -0.15772155 0.1298277 0.12136471 0.1677059
000200 07 c7 5f 3d cc 06 d2 bd 80 74 07 3e 27 55 b7 3b
       0.054633167 -0.10255203 0.13228035 0.0055948677
000210 59 7a 2e be 8f 15 bd 3d 51 b1 87 bd 10 a5 f7 3d
       -0.1703886 0.092326276 -0.06625617 0.1209203
000220 e5 53 b0 3d 67 f2 09 3e cb 66 16 be 3c e8 21 bd
       0.086097516 0.13471375 -0.1468765 -0.039528117
000230 6e ed ee bd 53 8e cd bd fa 54 91 bd c0 c0 83 bd
       -0.1166638 -0.10036912 -0.07096286 -0.064332485
000240 da 15 81 bd 95 ca 18 bd fd 20 07 be 6f 62 28 be
       -0.06302996 -0.037302572 -0.13196178 -0.164438
000250 aa e9 2f bd 54 d8 e6 bd 0a 57 b7 bd 8f 9f bc 3d
       -0.04294745 -0.1127173 -0.08952148 0.09210121
000260 12 50 22 3d 79 48 a7 bd 9e f5 30 be d1 b3 b7 3c
       0.039627142 -0.0816812 -0.17281196 0.02242461
000270 fa bf a5 bc 38 16 31 be d7 21 af 3d d1 15 96 3d
       -0.020233143 -0.17293632 0.08551376 0.0732838
000280 8c 02 46 3d f2 fb 14 3d 11 bb 36 bd 17 4d e0 3d
       0.048342273 0.036373086 -0.044611994 0.10952204
000290 70 76 a6 bd b4 4c 2c 3c 0c 40 86 bd 9c 88 07 3d
       -0.08128059 0.010516334 -0.06555185 0.033089265
0002a0 a6 eb ed 3d 39 26 2a be 4f b4 c0 bd 5e 7e 9c 3d
       0.11617212 -0.16616143 -0.09409391 0.0764129
0002b0 e1 e0 cf bd 75 73 f6 3d 05 64 09 3e ff 3c 31 be
       -0.10150314 0.120337404 0.1341706 -0.17308424
0002c0 e0 0a 30 be 8e ca 01 3e 4f 1c 26 be 4a 91 1f be
       -0.17191648 0.12674925 -0.16221736 -0.15582767
0002d0 b3 0c 45 3d 8c fe 97 3d d2 b4 ce bd 44 15 c0 3d
       0.048107814 0.07421598 -0.100930825 0.09379056
0002e0 32 7d b2 bd dd 37 f6 bd e6 a0 a4 3d 22 6a 8f bd
       -0.08715285 -0.12022374 0.080385014 -0.07002665
0002f0 80 40 f7 bc 39 f4 01 bc 8e 90 f7 bd 6a ec bb 3d
       -0.030182123 -0.007931762 -0.120881185 0.09175952
000300 99 91 b3 bd ea 8d be 3d 2e 3e 18 bd b5 11 77 3d
       -0.08768005 0.09304412 -0.037168674 0.06031962
000310 12 33 33 be f0 fc d2 bd b5 74 e9 3c 4b 19 9f bd
       -0.1749995 -0.1030215 0.028498033 -0.07768496
000320 27 3c 2d 3e 81 0e b1 3d 38 9f a2 bc 0e e0 50 bd
       0.16917478 0.086453445 -0.019851312 -0.050994925
000330 33 c6 09 be 88 df 29 3e ea 1c 1c be db e6 f3 bc
       -0.13454513 0.16589177 -0.15245405 -0.029773166
000340 0b d7 ba bc 72 eb e3 3c 30 26 97 3d 41 b1 e7 bd
       -0.022807619 0.02782223 0.073803306 -0.113131054
000350 f3 20 4e 3d a2 14 47 3c 1b ba e7 bc 0b 6c 31 be
       0.05032439 0.012150915 -0.028286984 -0.17326371
000360 7a 56 1e bd 36 89 6e bc dd d7 a7 bd 8a 54 0d be
       -0.03865669 -0.014559081 -0.081954695 -0.1380178
000370 07 e2 94 3c c7 b8 bd bc 5e 59 62 bc 81 3d c6 bd
       0.018174184 -0.023159398 -0.013815252 -0.096797
000380 e1 4c 33 bc db 8f b0 3b 50 15 e5 3c 4f ee a6 bc
       -0.010943622 0.0053882427 0.027964264 -0.020377306
000390 33 93 88 3d 96 21 89 3d 73 26 1a 3e f2 6c 2c be
       0.06668701 0.06695859 0.1505373 -0.16838434
0003a0 a0 f5 1a 3e 5f 99 b9 bd 83 b6 33 3e 0c 50 a8 3b
       0.15132761 -0.09062456 0.17550091 0.0051364955
0003b0 8f c3 74 3a 9b c4 e7 3d fa 39 2b 3e 83 78 10 bd
       0.0009337002 0.113167964 0.16721335 -0.03527118
0003c0 05 2b 96 3d d5 23 aa 3b 62 5c 75 3c 78 65 2d 3e
       0.07332424 0.00519226 0.014975639 0.16933239
0003d0 c9 5b 2b be c2 1e 9a bd eb 23 33 3e b9 64 17 3e
       -0.16734232 -0.07525398 0.1749417 0.14784516
0003e0 f0 c1 2d 3e 57 b1 b2 bd 2b 96 c0 3d 9a 89 ed bd
       0.16968513 -0.08725231 0.09403642 -0.11598511
0003f0 3f 63 15 3e 95 1a 8f bc 80 01 fd 3d 1c e6 c6 3d
       0.1458864 -0.01746873 0.12353802 0.09711859

network.2.bias f4 [32]
000000 a1 83 d7 3d f7 a5 1e 3e aa 4e 68 3d 5e e5 de 3d
       0.10523153 0.15492998 0.056715645 0.10883592
000010 af 97 16 3e eb 2c ad bd 58 9c 3c 3d 51 48 b2 bd
       0.147063 -0.08455833 0.04604754 -0.087051995
000020 dd 19 32 be a3 82 26 3e 4c 4a 26 be 8a 50 5f 3b
       -0.17392679 0.16260771 -0.1623928 0.0034075105
000030 74 92 b6 3d 9f 30 c8 3c af ac b1 bd f4 bf 9e bd
       0.089146525 0.024437247 -0.08675515 -0.07751456
000040 d4 d4 16 be e1 4c 37 bd cc dc e7 bc 89 68 b4 3d
       -0.14729625 -0.04475105 -0.028303526 0.08809001
000050 4a f6 d3 bd 71 e6 25 bd 22 72 0d 3e 2f 6f 43 3d
       -0.1034971 -0.04050297 0.1381307 0.047713455
000060 41 fb 85 3d 0d a9 1a bd 1f bb bd 3c 3c ac de bd
       0.065420635 -0.037758876 0.023160515 -0.10872695
000070 52 07 a9 3d d1 c1 09 be 4a 58 80 bd e8 66 eb bc
       0.08253349 -0.13452841 -0.0626684 -0.028735593

network.4.weight f4 [1, 32]
000000 90 d0 44 bd 64 69 74 bd f8 ff 98 3d 18 81 26 3e
       -0.048050463 -0.05967082 0.07470697 0.16260183
000010 02 77 16 be 87 fe 14 be 72 2f 13 be 92 3c bd 3d
       -0.14693835 -0.1455022 -0.14373568 0.092400685
000020 03 ed be 3d 08 f3 a9 bd b6 ac 0d 3e 8d bc 0c bc
       0.0932255 -0.08298308 0.13835415 -0.008589876
000030 06 d8 d2 bc af f0 53 3c 24 ba 8f bc ab 12 65 3d
       -0.025737774 0.012935801 -0.017544813 0.055926006
000040 a6 4f a1 3d 92 e0 11 3e 43 66 26 3e 6d 71 e5 3c
       0.0787652 0.14245823 0.16249947 0.028008187
000050 f9 db 57 bd 9a 6f 21 3e cf 96 21 bd a1 1d 85 bc
       -0.052700017 0.15765229 -0.039450463 -0.01624948
000060 c7 f7 d1 bd f9 63 e0 3d de 68 0c 3d 21 91 06 be
       -0.10252338 0.10956568 0.034279697 -0.131413
000070 d7 b0 79 3d c9 95 b9 3d b6 76 ef 3d 0b d6 19 be
       0.060959663 0.090617724 0.11692564 -0.15023057
