trained_model_real_N128_K64_v2.pt (torch, 8873 bytes, 5 tensors)

network.0.weight f4 [32, 7]
0	0xbe86c597	-0.26322624
1	0xbc13ebe2	-0.009028407
2	0x3e8a8c78	0.27060294
3	0x3eb9ff20	0.36327457
4	0x3e2ff323	0.17182593
5	0xbd2fb042	-0.042892702
6	0xbe83067c	-0.25590885
7	0x3e4ed52c	0.20198506
8	0x3ec000fb	0.37500748
9	0xbe3b2cb1	-0.18278767
10	0x3e2b6429	0.16737427
11	0x3d1703e8	0.03686896
12	0x3e6a1a45	0.22861584
13	0xbe1df89d	-0.1542687
14	0x3e82469b	0.25444493
15	0xbebe9be7	-0.3722832
16	0xbe969a1b	-0.29414448
17	0x3e6b573b	0.22982495
18	0x3d138b80	0.03602171
19	0x3e31c6e4	0.17361027
20	0x3ba86beb	0.005139818
21	0xbe8e7db1	-0.2783027
22	0xbc72aa3d	-0.014811096
23	0x3e6ff11c	0.2343182
24	0xbe46028d	-0.1933691
25	0xbeabde77	-0.33568165
26	0x3e2ab45c	0.16670364
27	0xbea18c09	-0.3155215
28	0x3c4245af	0.011857434
29	0xbe19cb73	-0.15019016
30	0x3d8a3749	0.06748826
31	0x3e247f35	0.1606415
32	0xbe55bf2e	-0.2087371
33	0x3e839df8	0.25706458
34	0x3e6dfe71	0.23241593
35	0x3e97e1d6	0.29664487
36	0xbeb748df	-0.35797784
37	0xbe88b921	-0.26703742
38	0xbd4d8c1e	-0.050182454
39	0xbd4dee58	-0.05027613
40	0x3ea9b46c	0.33145463
41	0x3e02dec8	0.12780297
42	0xbe82be8a	-0.25535995
43	0x3ea56508	0.32303643
44	0xbd42313e	-0.047410242
45	0xbe91d32f	-0.28481433
46	0x3e59d9b5	0.21274455
47	0xbea3fc55	-0.32028452
48	0xbe51766c	-0.2045533
49	0xbe8dd3f9	-0.27700785
50	0x3cdb3ce3	0.026762431
51	0xbe8fc114	-0.28076994
52	0xbeb3a6d7	-0.35088226
53	0xbba7f59e	-0.0051257154
54	0xbeaa21ed	-0.33229008
55	0xbd223345	-0.039599676
56	0x3e3ee4e9	0.1864201
57	0x3deafae9	0.114736386
58	0xbd9a64a4	-0.07538727
59	0xbdead3a6	-0.1146615
60	0x3e04e590	0.12978196
61	0x3e913c12	0.28366143
62	0xbe0bf255	-0.13666661
63	0x3d47ff75	0.048827607
64	0x3e971eea	0.29515773
65	0x3e4303bb	0.19044392
66	0x3ea56f49	0.32311466
67	0x3e86c2ea	0.26320583
68	0xbe73416d	-0.23755427
69	0xbeaad499	-0.33365324
70	0xbe3f1559	-0.18660487
71	0xbe9420ed	-0.2893137
72	0x3d87164f	0.06596052
73	0x3e7fbb85	0.24973877
74	0x3eac3dac	0.33640802
75	0xbe2876c3	-0.16451554
76	0xbd356180	-0.044282436
77	0xbea069a0	-0.31330585
78	0x3d47a19d	0.04873811
79	0x3db7f843	0.08982899
80	0xbea77446	-0.32705897
81	0xbe93b81b	-0.288514
82	0xbea11e66	-0.31468505
83	0xbe502814	-0.20327789
84	0x3eaab5fc	0.33341968
85	0x3e88e4b8	0.26737
86	0x3e8be8e2	0.27326113
87	0x3d105fa2	0.035247453
88	0xbc71a32d	-0.014748377
89	0x3d652bc9	0.05594996
90	0xbdc010e7	-0.09378224
91	0x3dbb005d	0.09130929
92	0x3e107806	0.14108285
93	0xbe630b4b	-0.22172277
94	0xbe54b215	-0.20771058
95	0x3dfdd958	0.12394971
96	0xbdb10a7a	-0.08644576
97	0x3e1803a6	0.14845142
98	0x3e3351a9	0.1751162
99	0xbea08f07	-0.3135912
100	0xbeb1a161	-0.34693435
101	0xbd6085dc	-0.05481516
102	0x3b6cba11	0.0036121646
103	0x3ea7cae9	0.32771996
104	0xbe88d58d	-0.26725426
105	0xbe470232	-0.19434431
106	0xbe1b5152	-0.1516774
107	0x3e88eb23	0.26741895
108	0xbd9b14fc	-0.07572362
109	0x3e526120	0.20544863
110	0xbd803339	-0.0625977
111	0x3c7d4f2d	0.0154607715
112	0x3df4ebe6	0.119590566
113	0x3d93a534	0.07209244
114	0xbe9c2d5c	-0.30503356
115	0xbe48d35d	-0.19611879
116	0xbe872d27	-0.26401636
117	0xbc769b37	-0.015051655
118	0x3e407f02	0.1879845
119	0x3e6376b7	0.22213255
120	0xbe58ac4e	-0.21159479
121	0x3cbaf1dc	0.022820406
122	0x3ea4a041	0.32153514
123	0xbd2b0e35	-0.041761596
124	0xbe9c87e0	-0.30572414
125	0xbe994146	-0.29932612
126	0x3e1654dc	0.14680809
127	0xbcbd8171	-0.023133012
128	0x3c4c7c45	0.0124808
129	0xbda1a53a	-0.078928426
130	0x3e8a66af	0.27031466
131	0x3c37a60e	0.011209024
132	0xbe793a75	-0.24338706
133	0xbe744192	-0.23853138
134	0xbd40c10e	-0.04705911
135	0xbe7802e8	-0.24219859
136	0xbe7bd51e	-0.24593017
137	0xbe8e3de2	-0.27781588
138	0x3c3cfa51	0.011534289
139	0x3eb9fcd8	0.36325717
140	0x3e66b967	0.22531663
141	0x3ea6f0bb	0.32605538
142	0xbebe00fc	-0.37110126
143	0x3e8511d0	0.25990152
144	0xbb5d5db9	-0.0033777787
145	0x3d3db171	0.0463118
146	0xbeb4246b	-0.35184035
147	0x3d842216	0.06451814
148	0x3e30e688	0.1727544
149	0x3db0897f	0.08619975
150	0x3d19cd69	0.03754941
151	0xbe8666ab	-0.26250204
152	0x3d936d56	0.071985886
153	0x3e18c196	0.14917597
154	0x3bd3aa55	0.006459514
155	0x3df2008f	0.11816513
156	0x3e517461	0.20454551
157	0x3eaba112	0.33521324
158	0x3dbad387	0.09122377
159	0x3e0cc4d5	0.1374696
160	0x3e0f1438	0.13972557
161	0x3e719021	0.23590137
162	0xbe6ad829	-0.22934021
163	0xbdb24270	-0.08704078
164	0x3e71269a	0.23549882
165	0xbe945462	-0.2897063
166	0xbd709598	-0.058736414
167	0xbe920f04	-0.2852708
168	0x3dd97ed9	0.106198974
169	0xbebd2188	-0.36939645
170	0x3dcf546b	0.10123523
171	0x3a36765c	0.0006960386
172	0x3b90efa3	0.004423098
173	0x3e84f602	0.2596894
174	0xbebc4623	-0.3677226
175	0xbeba4131	-0.36377862
176	0xbd4238c1	-0.047417406
177	0xbeafc48c	-0.3432964
178	0xbe52ece7	-0.20598184
179	0x3e91a6fc	0.2844771
180	0xbeb5629a	-0.3542679
181	0x3eafe031	0.34350732
182	0x3e1645d7	0.1467508
183	0xbe8d70bc	-0.27625072
184	0xbe9d3c33	-0.3070999
185	0x3e8ab653	0.27092227
186	0xbeaf93f7	-0.34292576
187	0x3d3c554a	0.045979775
188	0xbe005d97	-0.12535702
189	0x3ebbe5db	0.36698803
190	0x3dbe525c	0.092930526
191	0xbeab33f0	-0.33438063
192	0x3eaee502	0.34159094
193	0xbe1f8b86	-0.15580568
194	0xbe3bcbe9	-0.18339504
195	0xbc229726	-0.009923732
196	0xbe9c4cdb	-0.30527386
197	0xbe882f5e	-0.26598638
198	0x3e6aa327	0.229138
199	0x3eaaf638	0.33390975
200	0xbeb420fd	-0.35181418
201	0xbdbffbb0	-0.093741775
202	0xbd4dd559	-0.050252292
203	0x3e0c4b62	0.13700631
204	0x3e32c21e	0.17456862
205	0x3e7f293a	0.2491807
206	0xbe7f74b9	-0.2494687
207	0x3cc544df	0.024080692
208	0x3eb7ef5d	0.35924807
209	0xbd351b70	-0.04421562
210	0xbdd555c5	-0.1041675
211	0x3e93dda8	0.28880048
212	0x3e8f3e2a	0.27977115
213	0xbea660e6	-0.32495803
214	0xbe55c94d	-0.20877571
215	0x3d5e74aa	0.05431048
216	0xbea7ba28	-0.32759213
217	0x3b896149	0.0041925055
218	0xbea17033	-0.31530914
219	0xbe2ee58a	-0.1707975
220	0xbe816901	-0.25275424
221	0xbe09cf64	-0.1345802
222	0x3e8f6650	0.28007746
223	0x3ea8c53b	0.32962975

network.0.bias f4 [32]
0	0x3e8a411d	0.27002802
1	0x3e9c594e	0.30536884
2	0x3c20ff17	0.009826443
3	0x3e0e20aa	0.13879648
4	0xbe5517a6	-0.20809802
5	0xbe79ff8f	-0.24413894
6	0xb90052dc	-0.00012237899
7	0x3e3e20de	0.18567225
8	0x3e886945	0.26642814
9	0xbec6de5a	-0.38841516
10	0xbdee0ec2	-0.116239086
11	0xbd22b160	-0.03971994
12	0x3d9ff1fd	0.078098275
13	0x3ce7b7a5	0.02828581
14	0x3ec76b22	0.38948923
15	0xbe22c62b	-0.15895908
16	0x3c5fbd9b	0.013656045
17	0x3e939e9c	0.28831947
18	0xbe6e404a	-0.23266712
19	0xbe42963a	-0.1900262
20	0x3e82c56b	0.25541243
21	0x3e1df74c	0.15426368
22	0x3dfabf89	0.12243564
23	0xbe94a8c5	-0.2903501
24	0x3c8019ec	0.01563736
25	0xbe8b08c3	-0.27155122
26	0x3b48dd77	0.0030649581
27	0xbd532850	-0.051552117
28	0xbe853205	-0.26014724
29	0x3d68b45a	0.05681262
30	0xbe2b0145	-0.16699703
31	0xbea792c2	-0.32729155

network.2.weight f4 [32, 32]
0	0xbe3498e6	-0.17636451
1	0xbe1415e4	-0.14461476
2	0x3d3db90a	0.046319045
3	0x3e3202db	0.17383902
4	0x3e3b9d98	0.18321836
5	0xbd84e148	-0.064882815
6	0x3da3ce18	0.07998294
7	0xbda85d13	-0.082208775
8	0x3ddc6d9c	0.10763094
9	0x3bd345ac	0.0064475145
10	0xbe1c7d61	-0.15282203
11	0x3e1eb59b	0.15498964
12	0x3d2d8c7a	0.042370297
13	0xbdb07c15	-0.08617417
14	0xbdc3ca68	-0.0956009
15	0xbe2c7ee1	-0.16845275
16	0x3de8737c	0.11350152
17	0x3dddf39a	0.10837479
18	0x3e05cfbe	0.13067529
19	0xbbaa66a7	-0.0052002254
20	0xbdf2e493	-0.11860003
21	0x3e2cc329	0.16871323
22	0xbd508eb0	-0.050917327
23	0x3c3c3d22	0.011489185
24	0xbda66411	-0.08124555
25	0xbdd3b68d	-0.10337553
26	0xbe315a72	-0.17319658
27	0x3dd04e70	0.10171211
28	0x3d83e051	0.06439269
29	0x3df06200	0.11737442
30	0x3da8c346	0.082403705
31	0x3de47d85	0.111567535
32	0x3de67434	0.11252633
33	0x3e10900a	0.14117447
34	0xbe12add8	-0.14324129
35	0x3e23ad94	0.15984184
36	0x3d1611d1	0.036638085
37	0x3deabecb	0.11462172
38	0xbe27a71c	-0.16372341
39	0xbdbcc369	-0.09216959
40	0xbb8dfa86	-0.0043328432
41	0xbe2fa50c	-0.17152804
42	0xbd067787	-0.032828834
43	0x3d2cc48e	0.042179637
44	0x3c54ce3f	0.012988626
45	0x3d06dad5	0.03292354
46	0xbe174c3e	-0.14775178
47	0x3d2aecf0	0.041729867
48	0xbcaa4a53	-0.020787394
49	0x3cf86bf2	0.03032491
50	0x3d78dc8d	0.06075721
51	0x3d52fd91	0.05151135
52	0xbe18d286	-0.14924058
53	0xbd40b76a	-0.047049917
54	0xbd806650	-0.062695146
55	0x3e2fbae5	0.17161138
56	0xbd039e91	-0.032133643
57	0xbe19bd30	-0.15013576
58	0x3dfb1c04	0.12261203
59	0xbda3dc97	-0.080010585
60	0xbd0232e4	-0.031786814
61	0xbdb24027	-0.08703642
62	0xbe0e1c64	-0.13878018
63	0xbc5edf79	-0.013603085
64	0xbddb0695	-0.10694615
65	0xbd221692	-0.039572306
66	0x3e2cb990	0.16867661
67	0x3d9ebc52	0.07750763
68	0x3e1e1ccd	0.15440674
69	0xbd511c9f	-0.051052686
70	0xbc440528	-0.01196412
71	0xbdaa1c38	-0.083061635
72	0xbd68824e	-0.056764893
73	0x3e0c789c	0.13717884
74	0xbe1260dc	-0.14294761
75	0xbd61e36f	-0.05514854
76	0xbe28611b	-0.16443293
77	0x3d308e22	0.0431043
78	0xbcbc5a95	-0.022992412
79	0x3e0d05d0	0.13771749
80	0xbcdd6816	-0.027027171
81	0x3dc7bf33	0.09753265
82	0xbe271733	-0.16317444
83	0x3dc12474	0.09430781
84	0xbd7c7cad	-0.061642338
85	0xbdac9361	-0.08426548
86	0x3d3a3765	0.045462985
87	0xbd4fbc27	-0.050716545
88	0x3e300542	0.17189506
89	0xbe1317d7	-0.14364563
90	0xbcf3a7e0	-0.029743135
91	0x3caeb9a1	0.02132875
92	0x3d1f6859	0.038917873
93	0xbdde7185	-0.10861496
94	0x3cbf1b86	0.023328554
95	0x3d71ba62	0.05901564
96	0x3cdc45ff	0.026888845
97	0xbe194686	-0.14968309
98	0xbca7cf5f	-0.020484624
99	0xbe11e64f	-0.14248012
100	0x3e021d0d	0.12706394
101	0x3de81176	0.113314554
102	0xbe23ab7b	-0.15983383
103	0x3c843f63	0.016143506
104	0xbe0f3711	-0.1398585
105	0xbe206c58	-0.1566633
106	0xbe2fe02e	-0.17175362
107	0xbb8dd2c0	-0.004328102
108	0x3dff0db2	0.12453784
109	0x3c491c1e	0.01227477
110	0x3d8462d9	0.06464166
111	0xbdfe2c0e	-0.124107465
112	0xbc8ce01b	-0.017196706
113	0xbd653ec8	-0.055968076
114	0xbdca257c	-0.09870431
115	0xbd2ba7e7	-0.04190817
116	0x3e1d71db	0.15375464
117	0x3e056dfc	0.13030237
118	0x3de40aff	0.1113491
119	0x3ddab4c1	0.10679007
120	0x3ce4710e	0.02788594
121	0x3e20b513	0.15694074
122	0xbd6e8774	-0.058234647
123	0xbda130ac	-0.078706115
124	0xbe0886d9	-0.1333269
125	0xbdf9df03	-0.12200739
126	0xbdd97e9d	-0.10619853
127	0xbc784d7e	-0.015155194
128	0xbc9927a8	-0.018695667
129	0x3dd6c464	0.10486677
130	0x3e2acd12	0.1667979
131	0xbcd6003f	-0.026123164
132	0x3d8fa8d0	0.0701462
133	0xbdd6b43a	-0.10483594
134	0xbb128420	-0.0022356585
135	0xbd75a745	-0.059973974
136	0xbd95263e	-0.07282685
137	0x3de1ab46	0.11018996
138	0x3cbe9f35	0.023269275
139	0xbdc7ac43	-0.09749653
140	0xbc703f5a	-0.014663542
141	0xbe0cfe08	-0.1376878
142	0x3cb6f0a7	0.022331549
143	0x3e3104f1	0.17287041
144	0x3deae445	0.1146932
145	0x3d02c8c7	0.031929757
146	0x3c716774	0.014734138
147	0xbdc4a4c9	-0.09601743
148	0xbe16f14d	-0.14740486
149	0x3dde9003	0.10867312
150	0xbe00d424	-0.12580925
151	0xbe1fca3d	-0.15604492
152	0x3da83c2c	0.08214602
153	0xbe129a2e	-0.14316627
154	0xbd10e36b	-0.035373133
155	0xbe235145	-0.1594897
156	0x3ba39eb5	0.0049932846
157	0x3e011df7	0.12609087
158	0x3dc06577	0.09394353
159	0xbe0e0935	-0.138707
160	0x3e23e221	0.1600423
161	0xbe1deaff	-0.15421675
162	0xbc6b4ef5	-0.014362087
163	0x3c823fc1	0.01589954
164	0xbdfdffe7	-0.12402325
165	0x3d6e7a02	0.058221824
166	0xbca3971b	-0.019969514
167	0xbe2e8be1	-0.17045547
168	0x3d23758a	0.039907016
169	0xbb83571b	-0.0040081865
170	0xb858494a	-5.156667e-05
171	0xbdb126ec	-0.08650002
172	0xbe1c19f9	-0.15244283
173	0xbdb1d4e7	-0.08683186
174	0x3dcd2a11	0.10017789
175	0xbd9ea034	-0.077454
176	0xbcde370d	-0.02712586
177	0xbd93faed	-0.07225595
178	0x3b81a1c2	0.0039560506
179	0x3d8b1bf9	0.06792445
180	0x3d03e4b4	0.03220053
181	0x3e140fb1	0.14459111
182	0xbe05113c	-0.12994856
183	0xbe0962d0	-0.134166
184	0xbe2ec76f	-0.17068265
185	0xbde9b5ee	-0.114116535
186	0x3d997957	0.07493847
187	0xbdc06ea0	-0.093961
188	0x3dffae63	0.124844335
189	0xbdf73989	-0.12071521
190	0xbe145f62	-0.1448951
191	0x3c58a043	0.013221803
192	0xbd8deb3d	-0.06929634
193	0x3c799ffb	0.015235896
194	0x3e28958e	0.164633
195	0x3e16a99e	0.14713141
196	0xbe1edb0c	-0.15513247
197	0xbdca59a6	-0.0988038
198	0x3db0acec	0.08626732
199	0x3d3ec041	0.046570066
200	0x3d941be8	0.07231885
201	0x3be64b07	0.007027987
202	0x3e24876c	0.16067284
203	0xbca55e8e	-0.020186689
204	0xbd626481	-0.05527163
205	0xbd125f83	-0.03573562
206	0x3e20fa90	0.15720582
207	0xbdc9d99c	-0.09855959
208	0x3deeed47	0.11666351
209	0xbe07ffc6	-0.13281164
210	0xbd4fdd1f	-0.050747987
211	0xbe12a465	-0.14320524
212	0xbdef4c87	-0.11684518
213	0x3d3afe22	0.045652516
214	0x3e34c9ab	0.17655055
215	0xbe0dc099	-0.13843001
216	0x3ca484d3	0.020082867
217	0x3e25e21c	0.16199535
218	0xbd0361f4	-0.032075837
219	0x3d212e7c	0.03935097
220	0xbce5805c	-0.028015308
221	0x3cc88e5c	0.024481945
222	0x3e067bcd	0.13133164
223	0x3da3dc48	0.08001
224	0xbd73e0ba	-0.059540488
225	0x3e04cb3b	0.12968151
226	0xbda4c23b	-0.08044859
227	0xbdd0dcc4	-0.10198358
228	0xbda0598c	-0.0782958
229	0x3d835519	0.064127155
230	0x3d945c53	0.07244172
231	0xbd212c13	-0.039348673
232	0xbdb26199	-0.087100215
233	0xbe313ce8	-0.1730839
234	0x3be4d904	0.006983878
235	0xbbfd449a	-0.007729125
236	0x3db28809	0.08717353
237	0xbc726937	-0.014795593
238	0x3daf6194	0.085635334
239	0x3dce9ee1	0.100888975
240	0xbda9fb03	-0.0829983
241	0x3dea5ffa	0.11444087
242	0xbc9fd743	-0.019511824
243	0x3db529ce	0.08845864
244	0xbd3cd57c	-0.046102032
245	0x3d0c72be	0.034289114
246	0x3e17279c	0.14761204
247	0xbe298595	-0.16554864
248	0x3e222370	0.15833831
249	0x3b9e0461	0.0048222994
250	0x3cb529cd	0.022114659
251	0x3d9f39cd	0.077746965
252	0x3de65b2f	0.11247861
253	0xbe192f0a	-0.1495935
254	0x3d339572	0.043843694
255	0x3da974c3	0.08274224

network.2.bias f4 [32]
0	0x3dfa7e40	0.122311115
1	0xbd0544d7	-0.032536354
2	0xbe171cf3	-0.14757137
3	0x3e1d4478	0.1535815
4	0xbdc3d740	-0.0956254
5	0xbdf10d49	-0.11770112
6	0x3e0f2b92	0.13981465
7	0xbddac075	-0.106812395
8	0xbdca3850	-0.09874022
9	0x3db6f073	0.08932581
10	0xbe2bc7f3	-0.16775493
11	0x3d23dbc5	0.04000451
12	0xbd1faa90	-0.03898102
13	0x3d97c1be	0.0741
14	0x3d9be9ef	0.07612979
15	0xbbe76290	-0.00706131
16	0xbd1aebbe	-0.037822478
17	0x3e1d903f	0.15387057
18	0xbb400f4a	-0.0029305988
19	0xbb928a81	-0.0044720774
20	0x3dfbaa4f	0.12288343
21	0xbdef8248	-0.11694771
22	0xbdda7402	-0.10666658
23	0x3ddfae01	0.109218605
24	0x3e31ed52	0.17375687
25	0xbe0ce07d	-0.1375751
26	0xbc4312e3	-0.011906358
27	0xbd484a68	-0.048899084
28	0xbe2df61c	-0.16988415
29	0xbe0af9ef	-0.13571905
30	0x3c8843bf	0.016633866
31	0xbe24bd84	-0.1608792

network.4.weight f4 [1, 32]
0	0x3dc93286	0.0982409
1	0xbda27edc	-0.07934353
2	0x3d353c91	0.044247214
3	0x3d836488	0.06415659
4	0x3d7fc24f	0.062441166
5	0x3d5e4827	0.05426803
6	0x3e090f04	0.13384634
7	0x3c602af9	0.0136821205
8	0x3e22a8e1	0.15884735
9	0x3ced7760	0.028987586
10	0x3dc05548	0.09391266
11	0x3cffda6a	0.031232078
12	0xbdf2bd48	-0.11852509
13	0xba1f82ff	-0.00060848886
14	0x3d859819	0.06523151
15	0xbda726d9	-0.081617065
16	0x3e19787a	0.14987364
17	0xbba1e861	-0.004941032
18	0xbd435c75	-0.047695596
19	0x3d49fad5	0.049311478
20	0xbe13ae6e	-0.14422008
21	0x3c9564fe	0.018236633
22	0x3dd4efb4	0.10397282
23	0x3dae3323	0.08505847
24	0xbde76458	-0.11298436
25	0xbd91439e	-0.07092975
26	0x3dea4f4e	0.114409074
27	0xbe091d31	-0.13390042
28	0xbde82be3	-0.11336496
29	0xbd45e296	-0.048311792
30	0xbe0ad6ec	-0.13558549
31	0xbe0869a7	-0.13321553
