trained_model_N128_K64.pt (torch, 8777 bytes, 5 tensors)

network.0.weight f4 [32, 7]
0	0x3f3173f6	0.6931757
1	0x3ed952f6	0.42446107
2	0x3e93efde	0.28893942
3	0x3c9818c7	0.018566502
4	0x3d4e3ce4	0.05035104
5	0x3e1cf80e	0.15329
6	0x3ea4c5c7	0.32182142
7	0xbef573c6	-0.4793989
8	0xbf103810	-0.56335545
9	0xbe4eb589	-0.20186438
10	0xbe5aa634	-0.21352464
11	0xbdcf8720	-0.10133195
12	0x3dc6bd18	0.097040355
13	0xbeabf0a1	-0.33582023
14	0xbee2bc73	-0.442844
15	0xbf14fee0	-0.5820141
16	0x3e4d7a5e	0.2006621
17	0xbd880f3b	-0.0664353
18	0xbd6368ae	-0.055519752
19	0x3dd6e334	0.10492554
20	0x3d9cda57	0.076588325
21	0xbf3ed54f	-0.74544233
22	0xbea486c8	-0.3213408
23	0xbec96b05	-0.39339462
24	0x3e0179bf	0.12644099
25	0x3e3426b9	0.17592897
26	0xbeb4b6aa	-0.35295612
27	0x3e34c317	0.17652546
28	0x3f2bccbf	0.6710929
29	0x3efed72d	0.4977354
30	0xbebd5b47	-0.36983702
31	0xbe03618b	-0.12830178
32	0xbcca95f6	-0.02472971
33	0xbe1c3c72	-0.15257433
34	0x3e2c6909	0.16836943
35	0x3e1f7d69	0.15575184
36	0x3e8c86e6	0.2744667
37	0xbe1b73e4	-0.15180928
38	0xbea5aa09	-0.3235629
39	0xbe80d4c1	-0.25162318
40	0xbcd5be13	-0.026091611
41	0xbea40ebd	-0.32042494
42	0xbf244bfa	-0.6417843
43	0xbf1f4130	-0.62208843
44	0xbdd19722	-0.102339044
45	0x3dee8a8f	0.11647522
46	0x3e310526	0.1728712
47	0x3dac1629	0.08402664
48	0x3e2c723e	0.16840455
49	0x3efd3b48	0.4945929
50	0x3f0cf4ff	0.55061334
51	0x3ea517e8	0.32244802
52	0x3e6d4509	0.23170866
53	0xbe857691	-0.2606702
54	0xbd525bc5	-0.05135705
55	0xbdb054ec	-0.086099476
56	0xbf2b887f	-0.6700515
57	0xbe090968	-0.13382494
58	0x3ebf4d0d	0.37363473
59	0x3d9a090e	0.07521258
60	0xbe736deb	-0.23772399
61	0x3df1c0f7	0.11804383
62	0x3dd88670	0.10572517
63	0xbeaadcbb	-0.3337153
64	0xbf0fbf5b	-0.5615136
65	0xbd93b34b	-0.07211932
66	0xbe913200	-0.2835846
67	0xbe2f2dd2	-0.17107323
68	0x3e06a960	0.13150549
69	0x3e3b696b	0.18301933
70	0x3f02933c	0.5100591
71	0x3d8d4afb	0.06899067
72	0xbd2d0668	-0.042242438
73	0xbe5d3f31	-0.21606137
74	0xbe9041db	-0.28175244
75	0x3ed91388	0.42397714
76	0xbeb71320	-0.3575678
77	0xbf345d73	-0.7045509
78	0xbf368945	-0.71303207
79	0xbcb312a1	-0.021859469
80	0x3d27d7a1	0.040977124
81	0x3dccc6fc	0.09998891
82	0xb9e60c4c	-0.0004387818
83	0xbd9156e9	-0.07096655
84	0xbec8916c	-0.39173448
85	0xbf000729	-0.50010926
86	0x3e7b4157	0.24536644
87	0x3dabff69	0.08398325
88	0x3d73bb4b	0.05950479
89	0x3cf8cda8	0.030371502
90	0x3e3a0d57	0.18169151
91	0xbf1594fb	-0.5843045
92	0xbef49c27	-0.47775385
93	0x3e26d711	0.16292979
94	0xbd60afb5	-0.054855067
95	0xbdd00002	-0.101562515
96	0x3df59630	0.119915366
97	0xbe02c112	-0.12768963
98	0x3e6a45f0	0.22878242
99	0x3f22b118	0.63551474
100	0xbeb2c6bf	-0.34917256
101	0x3e93b02b	0.28845343
102	0x3e8583ab	0.26077017
103	0x3e0d9038	0.13824546
104	0x3eb3e114	0.35132658
105	0xbf1494be	-0.5803946
106	0xbe285bd0	-0.16441274
107	0x3ecd9e4a	0.40159827
108	0x3d2f7b56	0.04284223
109	0xbe905ebe	-0.28197283
110	0xbddb33f4	-0.10703269
111	0x3ba84763	0.005135463
112	0x3e9ea2d9	0.30983618
113	0x3f191fd7	0.5981421
114	0x3e8ea0b9	0.27856997
115	0x3ec62e2b	0.38707098
116	0x3e9426b5	0.2893578
117	0x3d7632a1	0.060106877
118	0xbe14ea4a	-0.14542499
119	0xbeeae02d	-0.45874158
120	0xbf17d11a	-0.5930344
121	0x3cf56379	0.029954659
122	0x3e826cf3	0.25473747
123	0xbe919091	-0.28430608
124	0xbe226109	-0.15857328
125	0xbdcb0657	-0.099133186
126	0x3f02915f	0.5100307
127	0x3f31a360	0.69389915
128	0x3e0088df	0.12552212
129	0xbe2dd0da	-0.16974202
130	0x3ce0a1fa	0.027420986
131	0xbc96dadc	-0.018414907
132	0xbde5639a	-0.11200638
133	0xbf2b7e85	-0.6698993
134	0xbf202973	-0.62563246
135	0xbd87c323	-0.06629016
136	0xbd7aaa27	-0.061197426
137	0xbca993c9	-0.020700352
138	0x3b4b0dcf	0.0030983572
139	0x3da920d0	0.082582116
140	0x3e33d3c3	0.1756125
141	0x3ee31af6	0.44356507
142	0x3e6b967b	0.23006622
143	0xbe9beee4	-0.30455697
144	0xbe346fc2	-0.17620757
145	0x3f0dc2b1	0.553752
146	0xbe880d1f	-0.2657251
147	0x3ed0e969	0.40803078
148	0x3e9c70d7	0.3055484
149	0xbe81225c	-0.25221527
150	0x3e6f0c65	0.23344572
151	0x3ec357d6	0.3815295
152	0x3ed166a4	0.4089862
153	0xbe9e2841	-0.30890086
154	0xbf18d065	-0.59692985
155	0xbefa304e	-0.4886498
156	0xbe9f7249	-0.3114188
157	0xbe18bb1f	-0.14915131
158	0x3daf2830	0.08552587
159	0x3e3e5920	0.18588686
160	0x3e0c632a	0.13709703
161	0xbe853168	-0.26014256
162	0xbe01f5b2	-0.12691382
163	0xbe1c04a7	-0.1523615
164	0x3e842427	0.25808832
165	0x3cfcce69	0.030860143
166	0xbea68cd2	-0.32529312
167	0x3dd30c12	0.103050366
168	0xbe485b59	-0.19566096
169	0x3e83cc29	0.257417
170	0xbf1f3c11	-0.6220103
171	0x3db477ce	0.088119134
172	0x3d77cdcf	0.06049901
173	0xbaa308ec	-0.0012438572
174	0xbebb6cfc	-0.36606586
175	0x3e8a4260	0.27003765
176	0x3e4639fb	0.19358055
177	0xbdf9fc65	-0.122063436
178	0x3ec7c42a	0.3901685
179	0x3d9aeadd	0.07564328
180	0xbf04f7b5	-0.5194047
181	0x3ede5e5a	0.4343136
182	0xbed14f8e	-0.40881008
183	0xbef6d0ee	-0.48206276
184	0x3e2836c1	0.16427137
185	0x3c93384a	0.017971177
186	0x3e36c66b	0.17849128
187	0x3d902d7a	0.07039924
188	0xbe1ce9d8	-0.1532358
189	0xbf28a3c3	-0.6587488
190	0xbf2217af	-0.6331739
191	0x3e16f837	0.14743124
192	0xbd9bdfa3	-0.07611015
193	0xbdf1c6b9	-0.118054815
194	0xbe50f977	-0.20407663
195	0xbdcf2cf1	-0.10115994
196	0x3f06ed76	0.52706087
197	0x3f17e30a	0.5933081
198	0x3e63c428	0.22242796
199	0xbe3baafb	-0.18326943
200	0xbdf20cfd	-0.118188836
201	0xbe1afced	-0.15135546
202	0xbc92ff43	-0.017943984
203	0xbe0cfcc8	-0.13768303
204	0xbe2d9484	-0.16951185
205	0x3e11b29c	0.1422829
206	0x3dc1b84d	0.09458981
207	0x3dedad78	0.11605352
208	0xbe2f9362	-0.17146066
209	0x3e9fa3df	0.3117971
210	0xbecb5d66	-0.39719695
211	0xbf248537	-0.6426577
212	0x3da72fb5	0.08163396
213	0x3e945e6f	0.28978297
214	0x3db332d5	0.0874993
215	0xbe318488	-0.17335713
216	0x3ea17d9e	0.3154115
217	0xbf3c1ea4	-0.73484254
218	0xbf032d1f	-0.51240724
219	0xbdc63a85	-0.096791305
220	0x3e33453b	0.17506878
221	0x3e4122a2	0.18860868
222	0x3e47d8b7	0.19516264
223	0xbe3ae5b6	-0.1825169

network.0.bias f4 [32]
0	0x3e4f3087	0.20233355
1	0x3d791b87	0.060817268
2	0x3e59efa9	0.2128283
3	0xbcb2fea4	-0.021849938
4	0x3e854c01	0.2603455
5	0x3f11ca52	0.5694934
6	0x3e7405b5	0.23830302
7	0x3e10ef40	0.14153767
8	0xbd81f652	-0.0634581
9	0x3ee456d7	0.44597504
10	0x3e0e91a1	0.1392274
11	0x3eaa92c6	0.33315104
12	0x3e5d7d59	0.21629848
13	0x3e7de1c6	0.24793157
14	0x3eaefb87	0.34176275
15	0xbd3f3d9b	-0.04668961
16	0x3f160fe0	0.58617973
17	0xbd2e8121	-0.042603616
18	0x3f000631	0.5000945
19	0x3ed90a9c	0.42390907
20	0xbddfb92d	-0.10923991
21	0x3ea95e21	0.33079627
22	0x3d3b3778	0.045707196
23	0xbe966954	-0.29377234
24	0x3eb99839	0.3624895
25	0x3dc8dd65	0.09807853
26	0x3ea03007	0.31286642
27	0x3ec94500	0.39310455
28	0x3ec7af06	0.3900072
29	0x3e72b547	0.23701964
30	0xbb1322c7	-0.0022451149
31	0x3e229419	0.15876807

network.2.weight f4 [32, 32]
0	0xbe2e1704	-0.17000967
1	0x3ea7a409	0.32742336
2	0x3ea0f2ae	0.3143515
3	0x3e585fed	0.21130343
4	0xbe84a4ab	-0.25906882
5	0xbc37c547	-0.011216468
6	0x3e9380ca	0.28809196
7	0xbe9a001e	-0.30078214
8	0x3ea828e1	0.32843688
9	0x3e27ba8a	0.16379753
10	0xbd4b86bf	-0.04968905
11	0x3f0368c1	0.51331717
12	0x3ed4d57f	0.41569135
13	0x3e8526bd	0.26006117
14	0xbb53f316	-0.0032340935
15	0x3deca189	0.11554248
16	0xbdc47557	-0.09592693
17	0x3db3b7b4	0.08775273
18	0xbeed25e7	-0.4631798
19	0x3f039dd7	0.5141272
20	0xbdc2ae9c	-0.0950596
21	0xbc90be7b	-0.017668953
22	0x3dfce384	0.12348083
23	0x3d206f9a	0.03916893
24	0x3d3bc866	0.04584541
25	0xbe31a528	-0.17348158
26	0x3eafafa2	0.34313685
27	0x3eb2088d	0.3477215
28	0xbe3dc178	-0.18530834
29	0x3e3ede07	0.18639384
30	0x3e12fc21	0.14353992
31	0x3e4fcecf	0.20293735
32	0xbeb08dd4	-0.34483206
33	0x3e831c60	0.25607586
34	0x3e063d77	0.13109384
35	0x3e0ae8d8	0.13565385
36	0xbec5bfa5	-0.38622776
37	0x3c83bf88	0.01608254
38	0x3e98541e	0.29751676
39	0xbe9a8f22	-0.30187327
40	0x3e055d72	0.13023928
41	0x3e4efefd	0.20214458
42	0x3e078cbc	0.1323728
43	0x3e65d9fc	0.22446436
44	0x3db95226	0.09048872
45	0x3ebd1f46	0.36937922
46	0xbde46166	-0.1115139
47	0x3ec39d12	0.38205773
48	0x3a4bd155	0.00077750284
49	0x3eb4ac47	0.35287687
50	0xbeef5505	-0.46744552
51	0x3ee9c870	0.45660734
52	0xbe468551	-0.19386794
53	0xbe7ee4b5	-0.24891932
54	0x3ebdff7f	0.3710899
55	0xbd1db488	-0.038502246
56	0x3d2a1dd0	0.041532338
57	0x3dca52a9	0.098790474
58	0x3eabcb5f	0.33553597
59	0x3e98ba45	0.29829612
60	0xbe689ee6	-0.22716865
61	0x3e3181ec	0.17334718
62	0x3e57e546	0.21083555
63	0x3eb2f38b	0.34951434
64	0x3eb1ea95	0.34749284
65	0xbe5d6274	-0.21619588
66	0xbe167226	-0.14691982
67	0xbe5c8a30	-0.2153709
68	0x3ef8c72b	0.48589453
69	0x3e865654	0.26237738
70	0xbea3d046	-0.31994838
71	0x3e9dd610	0.3082738
72	0xbd97cb2e	-0.074118
73	0xbe39d725	-0.18148477
74	0x3e4125ed	0.18862124
75	0xbf364dd9	-0.71212536
76	0xbe74c55e	-0.23903415
77	0xbee45ad9	-0.4460056
78	0x3e4fd938	0.20297706
79	0xbe213d47	-0.15746032
80	0x3e7d021d	0.24707837
81	0xbe343863	-0.17599635
82	0x3ef07d78	0.46970725
83	0xbf055815	-0.5208753
84	0x3dccbd41	0.09997035
85	0x3e958713	0.29204616
86	0x3c95721e	0.018242892
87	0xbd772287	-0.060335662
88	0x3e009ba7	0.12559377
89	0x3e50b176	0.20380196
90	0xbdd25188	-0.10269457
91	0xbe85bc44	-0.26120198
92	0x3f06a4eb	0.52595395
93	0x3d8e2c80	0.069420815
94	0xbe430a31	-0.19046856
95	0xbec2687f	-0.3797035
96	0x3e913cf9	0.2836683
97	0xbdfec473	-0.124398135
98	0xbea6f786	-0.3261072
99	0xbeb6eb25	-0.35726276
100	0x3e8ec253	0.27882633
101	0x3e367f9f	0.17822121
102	0xbece6061	-0.40307906
103	0x3ea69b60	0.32540417
104	0xbdb18925	-0.08668736
105	0x3d3743d1	0.04474241
106	0x3d711c1d	0.0588647
107	0xbec070b8	-0.37585998
108	0xbe90967e	-0.28239816
109	0xbf0f9343	-0.5608408
110	0x3ea66ea6	0.32506293
111	0xbdbe114f	-0.09280645
112	0x3ec4b717	0.38420936
113	0xbe0de2a2	-0.13855985
114	0x3ebf1744	0.37322438
115	0xbe9e1ecf	-0.3088288
116	0x3cf966b0	0.030444473
117	0x3ea9d2fd	0.33168784
118	0xbe043403	-0.12910466
119	0xbe3b8bc8	-0.18315041
120	0x3d6b2c39	0.05741522
121	0x3db08ecb	0.086209856
122	0xbe0fad22	-0.14030889
123	0xbeaf72dc	-0.34267318
124	0x3ec44328	0.38332486
125	0x3e180692	0.14846256
126	0xbe43ebb3	-0.19132881
127	0xbedabb93	-0.42721233
128	0x3efebbe1	0.49752715
129	0xbe0dda39	-0.13852777
130	0xbe808cc9	-0.2510741
131	0xbe81e6eb	-0.2537149
132	0x3e9083d8	0.2822559
133	0x3e0de106	0.13855371
134	0xbe90677c	-0.28203952
135	0x3f101bfe	0.5629271
136	0xbd8f17a8	-0.06986934
137	0x3d10ed23	0.0353824
138	0x3eaa9d8a	0.33323318
139	0xbf124bda	-0.5714699
140	0xbe30e005	-0.17272957
141	0xbef15af9	-0.4713972
142	0x3ec18c7b	0.3780249
143	0xbcc172bc	-0.02361428
144	0x3e950b29	0.29110077
145	0xbeb38815	-0.3506476
146	0x3ea1c64c	0.315966
147	0xbe854583	-0.26029596
148	0x3da74485	0.08167366
149	0x3e995c32	0.29953152
150	0xbeba87fc	-0.36431873
151	0xbe01f751	-0.12692
152	0x3e486cdb	0.19572775
153	0x3eb19a7b	0.34688172
154	0xbde9e39e	-0.11420368
155	0xbf05c114	-0.5224774
156	0x3ed10219	0.40821913
157	0xbd483730	-0.048880756
158	0xbe8491b1	-0.25892404
159	0xbeefd93e	-0.4684543
160	0xbeb3ffb7	-0.35156032
161	0x3e97fb07	0.29683706
162	0x3eb0706a	0.34460765
163	0x3eaf2193	0.34205303
164	0xbe3dd48b	-0.1853811
165	0xbdd13988	-0.10216051
166	0x3ec53763	0.3851882
167	0xbe992d9b	-0.29917607
168	0x3e6c42c2	0.23072341
169	0x3e90aa32	0.2825485
170	0x3d9ccab7	0.07655852
171	0x3ef19328	0.47182584
172	0x3e004c7c	0.12529176
173	0x3f07cccf	0.5304689
174	0xbe830bb7	-0.25594875
175	0x3e56803d	0.20947357
176	0x3cfd030a	0.030885238
177	0x3ea4d9fa	0.32197553
178	0xbef7502f	-0.48303363
179	0x3ea623d4	0.3244921
180	0xbe7fac48	-0.24968064
181	0xbd2c4f6f	-0.04206794
182	0x3eaa3505	0.33243576
183	0x3df03c03	0.11730196
184	0x3c8a5568	0.016886428
185	0xbc616217	-0.013756297
186	0x3ee6879a	0.4502533
187	0x3ea39534	0.3194977
188	0xbe869e67	-0.26292726
189	0x3e252128	0.1612593
190	0x3efc8e6a	0.49327403
191	0x3f0f6bb5	0.5602372
192	0xbf0306ff	-0.5118255
193	0x3ebeac0e	0.37240642
194	0x3ed12b79	0.4085348
195	0x3ef6c9a4	0.48200715
196	0xbedf5a9a	-0.4362381
197	0x3e0d27d0	0.13784719
198	0x3ea07252	0.3133722
199	0xbe8e3cc3	-0.27780733
200	0x3eb3ddd9	0.35130194
201	0x3e095c09	0.13414015
202	0x3d360060	0.04443395
203	0x3ee616ee	0.4493937
204	0x3ed17589	0.40909985
205	0x3ecaea72	0.39631993
206	0xbd76e889	-0.060280357
207	0x3db37848	0.08763176
208	0xbbab1e8b	-0.005222147
209	0x3ecdc929	0.40192536
210	0xbec4fd56	-0.3847453
211	0x3eb726ab	0.3577169
212	0xbe534606	-0.2063218
213	0xbe638d54	-0.22221881
214	0x3ed83af3	0.42232475
215	0x3e7a3cbc	0.24437231
216	0x3cca3cb9	0.024687158
217	0x3d308bdc	0.04310213
218	0x3e829ed1	0.25511792
219	0x3e9e877e	0.30962747
220	0xbe58e6a6	-0.21181735
221	0x3d8a2907	0.067461066
222	0x3e975908	0.29560113
223	0x3ec91cf9	0.39279917
224	0x3f05e91e	0.52308834
225	0xbe7aece3	-0.24504428
226	0xbe14798d	-0.14499493
227	0xbe6aa9df	-0.22916363
228	0x3efa1488	0.4884379
229	0x3d241de2	0.04006756
230	0xbef447f6	-0.47711152
231	0x3f0830cb	0.5319945
232	0xbe96be93	-0.29442272
233	0xbe496e4e	-0.19670984
234	0x3e5f1a34	0.2178734
235	0xbee71f09	-0.45140865
236	0xbe512af7	-0.20426546
237	0xbf117bab	-0.5682933
238	0x3ea577fb	0.323181
239	0xbe2d649d	-0.16932912
240	0x3ea6bd7d	0.32566443
241	0xbd17d540	-0.037068605
242	0x3f20b0f1	0.6276999
243	0xbe94182a	-0.28924686
244	0x3ebdb19e	0.37049574
245	0x3e7c3365	0.2462898
246	0xbec2f98b	-0.3808101
247	0xbdc7c027	-0.09753447
248	0x3dc79f27	0.09747153
249	0x3d71ab86	0.059001468
250	0xbdc31c01	-0.09526826
251	0xbefa9f4e	-0.48949665
252	0x3ebee39c	0.37283027
253	0x3c99d491	0.018778117
254	0xbe8779d2	-0.2646013
255	0xbecdbd8a	-0.4018367

network.2.bias f4 [32]
0	0x3d4e70eb	0.050400656
1	0x3e637177	0.22211252
2	0x3e096f57	0.13421379
3	0x3e209431	0.1568153
4	0x3d8b4569	0.06800348
5	0x3d8940a8	0.06701785
6	0x3e02ca7b	0.12772553
7	0x3e4238a7	0.18966924
8	0x3e64ccc3	0.22343735
9	0x3e3ef6f1	0.18648888
10	0x3e274e3e	0.16338441
11	0x3ea7d783	0.3278161
12	0x3dcb95ab	0.09940656
13	0x3e803d9c	0.25047004
14	0x3e8a9b2f	0.2707152
15	0x3dd3ffaf	0.10351502
16	0xbe3210f8	-0.17389286
17	0xbe0ea348	-0.13929474
18	0x3ec8e6ba	0.3923853
19	0xbce28407	-0.027650846
20	0x3e12c26b	0.14331977
21	0x3e7257c0	0.23666286
22	0x3da69bfb	0.0813522
23	0x3df5f181	0.12008954
24	0x3e5c1929	0.21493973
25	0x3c1cc47b	0.009568329
26	0x3e04374f	0.12911724
27	0x3e640b0c	0.22269839
28	0x3d6606e5	0.05615892
29	0x3d86c3a4	0.06580284
30	0x3dd31f15	0.10308663
31	0xbbd203fb	-0.006409166

network.4.weight f4 [1, 32]
0	0xbf27b3b8	-0.65508604
1	0xbf1b48a6	-0.6065773
2	0x3f74808a	0.95508635
3	0x3f41d112	0.7570964
4	0x3f641dda	0.8910805
5	0xbf30eca1	-0.6911107
6	0xbf0e2e40	-0.5553932
7	0x3f7106dc	0.9415109
8	0x3f33c4a6	0.70221937
9	0x3f36421f	0.7119464
10	0x3f2b3246	0.66873586
11	0x3f0ca001	0.54931647
12	0xbf09b522	-0.5379201
13	0x3f2fbbd4	0.6864598
14	0x3f391b7b	0.72307557
15	0x3f6f5786	0.93492925
16	0x3df66830	0.12031591
17	0xbe021bbb	-0.12705891
18	0x3f508ed9	0.8146797
19	0xbd7de88c	-0.061989352
20	0xbf1e0b07	-0.61735576
21	0x3f367a5f	0.71280473
22	0x3f57cc5a	0.8429619
23	0x3f6335e6	0.8875412
24	0xbf07a350	-0.5298357
25	0xbf058903	-0.5216219
26	0xbf27f7c0	-0.6561241
27	0x3f1b1fa6	0.60595167
28	0xbf2e490e	-0.6808022
29	0x3f682570	0.90682125
30	0x3f5c0632	0.85946953
31	0xbf17f352	-0.5935565
